bilstm_model.pth (torch, 542505 bytes, 18 tensors)

lstm.weight_ih_l0 f4 [256, 1]
0	0x3e596a19	0.2123188
1	0xbd39830e	-0.045291
2	0x3e0974cd	0.13423462
3	0x3c7e1960	0.01550898
4	0x3cb90590	0.02258566
5	0x3dcc4793	0.09974589
6	0xbd6a1d68	-0.05715695
7	0x3d6e03c3	0.058109056
8	0xbcf974f4	-0.030451275
9	0x3d17b723	0.037039887
10	0x3d739415	0.059467394
11	0xbd1f3c09	-0.038875613
12	0xbd81b930	-0.0633415
13	0xbd704bd5	-0.05866607
14	0x3ce082b9	0.027406083
15	0x3cfddf7c	0.030990355
16	0x3e538a34	0.20658189
17	0x3cb4c819	0.02206807
18	0x3d270ab7	0.040781703
19	0xbda4b7c6	-0.080428645
20	0xbb83ed89	-0.004026119
21	0x3e0d140e	0.13777182
22	0x3e155fec	0.14587373
23	0xbe1d0ad5	-0.15336163
24	0x3c02d045	0.007984226
25	0xbc784a10	-0.015154377
26	0xba571afc	-0.000820562
27	0x3da5f683	0.08103659
28	0xbc0d815e	-0.008636801
29	0xbd17965f	-0.03700864
30	0xbd3444b4	-0.044010833
31	0x3d28c4cb	0.0412033
32	0xbb92b030	-0.0044765696
33	0x3d3abc55	0.045589764
34	0x3e3ca17e	0.1842098
35	0xbe66dc21	-0.2254491
36	0x3d3eacba	0.046551444
37	0xbdadf47e	-0.08493899
38	0xbd0ffaf5	-0.03515144
39	0xbdae692c	-0.08516154
40	0x3c847acd	0.016171837
41	0xbc3467eb	-0.011011104
42	0xbd848fc8	-0.064727366
43	0x3dcb9c90	0.09941971
44	0x3e065c47	0.13121139
45	0xbda92ba9	-0.08260281
46	0xbca158cd	-0.019695664
47	0xbcf3a5eb	-0.029742202
48	0xbdc29728	-0.09501487
49	0x3d87a830	0.06623876
50	0x3d576e8f	0.05259567
51	0x3db79e06	0.089656875
52	0xbcf314e8	-0.029673055
53	0xbd79511e	-0.060868375
54	0x3e17777b	0.14791672
55	0x3e0e5894	0.13900977
56	0x3dc7ffa5	0.09765557
57	0xbd64ebf7	-0.055889096
58	0x3d3bdab4	0.04586287
59	0x3d3a3a06	0.04546549
60	0xbcd1ad2a	-0.025595266
61	0xbce27346	-0.027642857
62	0xbd9274b8	-0.071511686
63	0xbd5f9eb2	-0.054594703
64	0x3e1b7876	0.15182671
65	0x3dc85217	0.097812824
66	0x3d3305d9	0.04370675
67	0xbdebbe8b	-0.115109526
68	0xbe2d2024	-0.16906792
69	0x3d596be7	0.05308142
70	0xbdefe2af	-0.11713158
71	0x3dcface9	0.10140402
72	0x3cd9083d	0.026493186
73	0x3e181f45	0.14855678
74	0x3dc61e7c	0.09673783
75	0x3d739f8c	0.059478328
76	0x3da848e1	0.082170255
77	0xbd321b34	-0.043482974
78	0x3d2fbab1	0.042902652
79	0xbe2d7217	-0.16938053
80	0x3ddaac3b	0.106773816
81	0xbe088998	-0.13333738
82	0xbdccad85	-0.09994034
83	0x3e1d2f63	0.15350108
84	0x3cced53c	0.025248162
85	0x3d1696c5	0.03676488
86	0x3dcde2c2	0.10053016
87	0x3ce749a4	0.028233357
88	0x3cd7fd1b	0.026365807
89	0xbe16bbea	-0.14720121
90	0x3d6918bb	0.05690835
91	0x3cb01f84	0.021499403
92	0xbd8ca534	-0.068674475
93	0xbd546a6f	-0.051859315
94	0xbe57df55	-0.21081288
95	0xbdc5f4a1	-0.096658
96	0xbe0e15fd	-0.13875575
97	0x3d38a25c	0.045076713
98	0x3d7755e9	0.060384665
99	0xbe2400e7	-0.16015969
100	0x3de55215	0.111972965
101	0x3c9c67d2	0.019092474
102	0x3e093192	0.13397816
103	0xbe5ca440	-0.21547031
104	0x3c6c4718	0.014421247
105	0xbcb3e15d	-0.021958048
106	0xbd013b3b	-0.031550627
107	0x3e32444e	0.17408869
108	0x3d8f300d	0.06991587
109	0x3d870cb0	0.06594217
110	0x3dcd0b2e	0.10011898
111	0xbd2c714f	-0.042100247
112	0x3df7e79e	0.12104724
113	0xbce60e60	-0.028083026
114	0x3e2ddd9b	0.16979067
115	0x3b8771f9	0.0041334596
116	0xbd66334b	-0.05620126
117	0x3d027567	0.031850245
118	0x3a8b0bb3	0.0010608345
119	0x3debb7fe	0.11509703
120	0xbd44ae9b	-0.04801808
121	0x3df63886	0.120225
122	0x3d129254	0.03578408
123	0x3db1016b	0.086428486
124	0x3ccf4b60	0.025304496
125	0xbde39941	-0.11113215
126	0x3cc061e6	0.023484182
127	0xbdbb1bcc	-0.09136161
128	0xbe46926d	-0.19391795
129	0xbe70760e	-0.23482534
130	0x3d979215	0.0740091
131	0xbdf8f278	-0.12155622
132	0x3e39a9f4	0.18131238
133	0xbdc2c893	-0.09510913
134	0xbddd142d	-0.10794864
135	0xbe713d84	-0.23558623
136	0xbe4057b3	-0.18783455
137	0xbe9a658a	-0.30155593
138	0xbd56541d	-0.05232631
139	0xbde30c74	-0.110863596
140	0x3e88d03d	0.26721373
141	0x3c0a1e11	0.00843002
142	0x3eca9b51	0.39571622
143	0xbe82cf49	-0.2554877
144	0xbe5b610c	-0.21423739
145	0xbe2dcb17	-0.16972004
146	0x3e339ee0	0.17541075
147	0x3ebd9a5c	0.3703183
148	0xbdc2a7cb	-0.0950466
149	0xbdcdc7fc	-0.100479096
150	0x3e49610e	0.1966593
151	0xbe0ff6cd	-0.14058991
152	0x3e4528d0	0.1925385
153	0xbd1545f2	-0.03644366
154	0xbe87f112	-0.2655111
155	0xbd9b59ec	-0.075855106
156	0x3e171047	0.14752303
157	0xbe7208c6	-0.2363616
158	0xbe1f186d	-0.15536661
159	0xbe87a51a	-0.2649315
160	0xbe44a3ed	-0.19203158
161	0xbe01013d	-0.12598129
162	0xbe4b059b	-0.19826357
163	0x3eaebbf8	0.34127784
164	0xbdb118aa	-0.086472824
165	0x3c256498	0.010094784
166	0x3d739b87	0.059474494
167	0xbe9d830e	-0.3076405
168	0xbdeba5f9	-0.11506266
169	0x3e55c76f	0.20876859
170	0xbe938a0f	-0.28816268
171	0x3e987ae8	0.2978127
172	0x3e0a8885	0.1352864
173	0x3cdcd691	0.026957782
174	0x3e1edb78	0.15513408
175	0x3daa5e37	0.08318751
176	0xbe1d96e2	-0.15389588
177	0xbd844d93	-0.064601086
178	0x3dce5054	0.10073915
179	0x3d27fe4d	0.041014004
180	0x3dc8747f	0.09787845
181	0xbe7e3cb7	-0.24827848
182	0xbdbba046	-0.09161429
183	0xbe1df8ce	-0.15426943
184	0xbe543c2d	-0.2072608
185	0xbe32bf37	-0.17455755
186	0x3ecefebc	0.40428722
187	0x3c8b343a	0.016992677
188	0x3e35808d	0.1772482
189	0xbebb7ebb	-0.36620125
190	0x3cd9495b	0.026524236
191	0xbe58ceab	-0.21172588
192	0x3e5b6234	0.2142418
193	0xbda85b78	-0.08220571
194	0xbc907962	-0.017636005
195	0x3dfd1366	0.123572156
196	0xbde1b203	-0.11020281
197	0xbd02692e	-0.03183859
198	0xbd1f9df0	-0.03896898
199	0x3cf984c1	0.03045881
200	0xbd5162dc	-0.05111967
201	0x3da9b13e	0.082857594
202	0x3d845077	0.0646066
203	0xbd1391ce	-0.036027722
204	0xbd9a97ab	-0.075484596
205	0xbd13100a	-0.035903968
206	0x3d929914	0.071581036
207	0xbcdd0c62	-0.026983444
208	0x3cb06573	0.02153275
209	0xbbcb7eec	-0.0062101986
210	0x3c3fef01	0.011714698
211	0xb7ddcba0	-2.6440073e-05
212	0xbd570137	-0.052491393
213	0xbc1e4c3b	-0.009661729
214	0x3cec08b6	0.028812747
215	0xbcabfbf7	-0.02099417
216	0x3df82844	0.12117055
217	0xbd9d2189	-0.07672412
218	0x3e0b5195	0.1360534
219	0x3db57a4f	0.08861219
220	0xbdc125db	-0.094310485
221	0x3dfb2b30	0.12264097
222	0xbd829820	-0.06376672
223	0xbd9ae988	-0.07564074
224	0x3a10be0b	0.00055214827
225	0x3dbafdc6	0.09130435
226	0x3e325ecf	0.17418979
227	0xbe541643	-0.20711617
228	0xbdc934de	-0.09824537
229	0x3c8c9b47	0.017163886
230	0x3e0735d7	0.13204132
231	0xbdf00d84	-0.11721328
232	0xbda34704	-0.079725295
233	0x3e27eaf4	0.16398221
234	0x3dd9a484	0.10627082
235	0x3d598bdd	0.0531119
236	0xbca08d22	-0.019598547
237	0x3dd5c0b0	0.10437143
238	0x3de72bb2	0.11287631
239	0xbd3afa6a	-0.04564897
240	0xbd58ab1b	-0.052897554
241	0x3d4989ac	0.04920356
242	0xbd66c50c	-0.056340262
243	0xbd952d01	-0.072839744
244	0x3c238e95	0.009982725
245	0x3bdb687c	0.006695805
246	0x3d58105e	0.052749984
247	0xbd8165d4	-0.0631825
248	0xbcdf6b56	-0.027272861
249	0x3cfa2408	0.03053476
250	0x3dcb4817	0.099258594
251	0x3d9e498b	0.07728871
252	0xbc04d4c4	-0.008107368
253	0xbd6f2a64	-0.058390036
254	0xbd2c32ad	-0.042040516
255	0x3bb578d2	0.0055380845

lstm.weight_hh_l0 f4 [256, 64]
0	0x3e13561b	0.14388315
1	0x3e2b4dbb	0.1672887
2	0x3cffd49b	0.031229308
3	0xbd1a0ebc	-0.037611708
4	0x3e290aa3	0.16507964
5	0xbcfdccac	-0.030981384
6	0x3d28a7c9	0.041175637
7	0xbc6a09e7	-0.014284587
8	0xbddff3cf	-0.10935175
9	0x3dd405ce	0.1035267
10	0x3d7a141c	0.061054334
11	0xbcab2ec9	-0.020896332
12	0xbc83dcab	-0.016096434
13	0x3dad3479	0.08457274
14	0xbcaf444f	-0.021394877
15	0xbd458b19	-0.048228357
16	0x3da4d337	0.080480985
17	0x3d56e787	0.052466895
18	0x3d4ec8ed	0.050484587
19	0x3e18fa1e	0.14939162
20	0xbe0faf12	-0.14031628
21	0xbdb389c5	-0.08766512
22	0xbdf4f619	-0.11961002
23	0xbcc0e9d0	-0.02354899
24	0x3ddad3e5	0.10684947
25	0x3d77461f	0.060369607
26	0xbdf04027	-0.11730986
27	0x3d471398	0.04860267
28	0xbdaa5fb2	-0.08319034
29	0x3e200331	0.15626217
30	0xbe3e4a4e	-0.18583032
31	0x3d9c3b6a	0.0762852
32	0x3d8a51b6	0.067538664
33	0xbe02ecdc	-0.12785667
34	0x3e0196eb	0.12655227
35	0x3e313aee	0.17307636
36	0xbe007e78	-0.12548244
37	0xbd6a9c90	-0.057278216
38	0xbe0ef94c	-0.13962287
39	0xbd5dde3d	-0.05416702
40	0xbbe913a3	-0.0071129366
41	0xbc7f6526	-0.0155880805
42	0xbc9dd4f8	-0.01926659
43	0xb73b0d60	-1.1149183e-05
44	0xbda585a7	-0.08082133
45	0xbd59058e	-0.052983813
46	0x3c4d448b	0.012528549
47	0xbd844f00	-0.064603806
48	0xbda7b5a9	-0.08188946
49	0x3dba955b	0.091105185
50	0xbc9871ad	-0.018608892
51	0xbd73b716	-0.059500776
52	0x3c47a046	0.012184208
53	0x3dc9fb84	0.09862426
54	0x3d3a00e9	0.045411024
55	0x3d8b56f4	0.06803694
56	0xbd602ec3	-0.054732095
57	0xbde4988a	-0.11161907
58	0xbd6fd14e	-0.058549218
59	0x3d926704	0.07148555
60	0x39e48f65	0.00043594386
61	0xbd0fe20f	-0.035127696
62	0xbc0a1ac1	-0.00842923
63	0xbe3f3f3b	-0.18676464
64	0x3e0f4208	0.13990033
65	0x3e13963c	0.14412779
66	0xbda0187f	-0.07817172
67	0x3d92e9e8	0.0717352
68	0xbdb0b131	-0.086275466
69	0x3d441b9c	0.047877893
70	0x3e1c397c	0.15256304
71	0x3c0e6f30	0.008693501
72	0x3df6cc77	0.12050717
73	0x3e32e268	0.1746918
74	0x3e01b904	0.12668234
75	0x3ded375e	0.11582826
76	0x3cc78dc0	0.024359584
77	0x3d9cda4a	0.07658823
78	0x3d86c20e	0.06579982
79	0xbd18d714	-0.03731449
80	0x3e012f56	0.12615713
81	0xbdfb6ef0	-0.12277019
82	0xbd491082	-0.04908801
83	0xbcc49fa0	-0.024001896
84	0x3c4f68bc	0.012659248
85	0x3e0efca0	0.13963556
86	0xbd0ae72f	-0.03391188
87	0x3d3de5b0	0.046361625
88	0xbd0eca34	-0.034860805
89	0x3e0dd9e1	0.13852645
90	0x3dc670d7	0.09689491
91	0xbd944ee7	-0.07241612
92	0x3c07accc	0.008280944
93	0x3d824cb7	0.063622884
94	0x3d7ce944	0.061745897
95	0xbddd8bce	-0.10817681
96	0xbd9140c2	-0.0709243
97	0x3daed433	0.085365675
98	0x3d6864be	0.0567367
99	0x3da02a44	0.078205615
100	0xbd2f6d86	-0.04282906
101	0xbda2049c	-0.079110354
102	0x3cc5d870	0.024151057
103	0xbda38cfd	-0.07985876
104	0x3d910739	0.07081456
105	0x3cc78e26	0.024359774
106	0xbddc82db	-0.10767146
107	0xbe0e6953	-0.13907366
108	0xbd84767e	-0.06467913
109	0x3db5c5ac	0.088755935
110	0xbd9806b8	-0.074231565
111	0xbd84a7d5	-0.06477324
112	0xbdbbf942	-0.091784015
113	0x3d98400c	0.07434091
114	0xbd83e02d	-0.064392425
115	0xbc858103	-0.01629687
116	0x3d3c90b8	0.046036452
117	0xbd5236d7	-0.05132183
118	0x3dff5c87	0.1246882
119	0x3bb4d003	0.005517961
120	0x3dea2ab6	0.11433928
121	0xbd2b9031	-0.04188556
122	0xbd0b8b01	-0.03406811
123	0x3def6e68	0.1169098
124	0x3cd4ef27	0.025992943
125	0xbe0aa2ce	-0.13538668
126	0xbe262372	-0.16224459
127	0xbdce8ca1	-0.100854166
128	0x3e22b037	0.15887533
129	0x3d212c00	0.039348602
130	0xbd821206	-0.06351094
131	0xbd575f2f	-0.05258101
132	0xbd058330	-0.032595813
133	0xbdc4d12d	-0.096102096
134	0xbd9e0fed	-0.07717881
135	0xbe289f8a	-0.1646711
136	0x3d5af46f	0.053455766
137	0xbd4ebeb3	-0.050474834
138	0x3d0f09c1	0.03492141
139	0x3dcf42b6	0.10120146
140	0x3d5b92fa	0.053606965
141	0xbd04f66a	-0.03246156
142	0x3da21bea	0.079154804
143	0xbdc4aa35	-0.09602777
144	0x3e021f34	0.12707216
145	0xbd896ee7	-0.06710606
146	0x3d4cc5d4	0.04999335
147	0x3dd75bc6	0.10515551
148	0xbc41f12d	-0.011837286
149	0xbde63e5c	-0.11242363
150	0xbe1c6c81	-0.15275766
151	0xbdda3537	-0.10654681
152	0x3cf4dd0c	0.02989056
153	0xbd02b0a1	-0.031906728
154	0xbbe1bf87	-0.006889287
155	0x3dcca811	0.099929936
156	0x3dd2d7b0	0.102950454
157	0x3e093a9c	0.13401264
158	0x3c9c9d9e	0.019118126
159	0xbd8b2184	-0.06793502
160	0x3d0f73de	0.03502261
161	0xbdf2c871	-0.118546374
162	0x3d862457	0.065499
163	0x3d4ee72d	0.050513435
164	0x3cb84bcd	0.022497082
165	0x3dcc8cc2	0.09987785
166	0xbe03dcd4	-0.12877208
167	0x3ac8ffa7	0.0015334979
168	0xbdbc8ae5	-0.092061795
169	0xbdb1ace3	-0.08675554
170	0xbdd3d94b	-0.1034418
171	0x3d5d7b31	0.054072563
172	0x3b7c4560	0.00384935
173	0x3c237cda	0.009978497
174	0xbe0b1612	-0.13582638
175	0xbe052218	-0.13001287
176	0x3dfae551	0.1225077
177	0xbd914f65	-0.070952214
178	0x3da844db	0.08216258
179	0x3d8e7465	0.06955794
180	0xbb844f3b	-0.0040377653
181	0xbcb106b5	-0.021609643
182	0x3c206452	0.009789543
183	0xbe0f04ae	-0.13966629
184	0x3d903132	0.07040633
185	0x3d88d46f	0.066811435
186	0x3cb543ac	0.022126995
187	0xbe272f82	-0.16326717
188	0x3c54d3e6	0.012989974
189	0xbd403416	-0.046924673
190	0xbd3b316c	-0.04570143
191	0xbdfa1364	-0.1221073
192	0xbaaf46cc	-0.001337254
193	0x3e0634cb	0.13106076
194	0xba4d27ea	-0.0007826077
195	0xbde77bee	-0.113029346
196	0xbcaebdda	-0.021330763
197	0xbc174f60	-0.009235233
198	0xbc575b48	-0.013144322
199	0xbbdfa483	-0.0068250312
200	0xbbb05fa7	-0.0053824964
201	0x3cbb4cf1	0.022863837
202	0x3d3f3e94	0.04669054
203	0x3dd009ba	0.10158105
204	0x3ddbcc69	0.107323475
205	0xbda43417	-0.08017748
206	0x3df2589c	0.11833307
207	0x3d7685aa	0.060186066
208	0xbdb5d02d	-0.08877597
209	0xbdcdc3f4	-0.10047141
210	0x3ca199b6	0.019726615
211	0x3d79db26	0.06100001
212	0xbc0d983a	-0.008642251
213	0x3d97d1e9	0.07413084
214	0xbe06c245	-0.13160045
215	0x3c7715fe	0.015080927
216	0xbd9467fd	-0.07246397
217	0x3df24680	0.11829853
218	0xbd8ebd70	-0.06969726
219	0x3d10d678	0.035360783
220	0x3d832a05	0.06404499
221	0xbdccec99	-0.10006065
222	0xbadab3c6	-0.0016685657
223	0x3dae71f5	0.08517829
224	0xbdf8ed53	-0.12154641
225	0xbda42aaa	-0.0801595
226	0xbd817047	-0.06320243
227	0x3da60121	0.08105684
228	0xbd349402	-0.044086464
229	0x3d72f2f8	0.059313744
230	0x3c57c3d5	0.013169249
231	0xbd8acb17	-0.067770176
232	0xbca042ff	-0.019563196
233	0xbe075cb9	-0.13218965
234	0x3d9ae0f1	0.075624354
235	0x3db8a787	0.09016328
236	0xbcc23d32	-0.02371082
237	0x3ca731fd	0.020409578
238	0x3d12a2c3	0.035799753
239	0xbd82b96a	-0.06383021
240	0xbe08b354	-0.13349658
241	0x3dca4cd5	0.09877936
242	0xbd9999ef	-0.07500064
243	0x3db4b141	0.08822871
244	0x3dc72948	0.09724671
245	0x3ddf0118	0.108888805
246	0xbdaf5d3f	-0.08562707
247	0xbe2e0063	-0.16992335
248	0xbc06835f	-0.008210032
249	0xbcc8e32c	-0.024522386
250	0xbd0c6efd	-0.034285534
251	0xbd6f19ba	-0.058374144
252	0xbcfe4e61	-0.031043233
253	0xbdfa32d4	-0.12216726
254	0xbd3dcfc1	-0.046340708
255	0x3db4b560	0.08823657

lstm.bias_ih_l0 f4 [256]
0	0xbe35eb65	-0.17765577
1	0x3d8e9000	0.069610596
2	0xbd20fdbe	-0.039304487
3	0x3bce4c21	0.0062956964
4	0xbdf8fc6c	-0.12157521
5	0xbdd2c3a6	-0.10291223
6	0xbe2e1eb7	-0.17003904
7	0xbc4fc303	-0.012680772
8	0x3b854765	0.004067349
9	0xb923ae78	-0.00015609886
10	0xbd2cb0cb	-0.04216079
11	0xbe28c18c	-0.16480082
12	0xbe39ec55	-0.1815656
13	0xbd7c6e13	-0.061628412
14	0x3cf2edf6	0.029654484
15	0xbd49176e	-0.04909461
16	0x3b3d6819	0.0028901158
17	0xbe4cd03e	-0.20001313
18	0x3be0fdbf	0.0068661864
19	0x3ddf834b	0.10913714
20	0xbdd07441	-0.10178424
21	0x3cd7679d	0.026294524
22	0xbdd83aa6	-0.10558061
23	0xbdfb79b1	-0.1227907
24	0xbca69666	-0.020335387
25	0xbe043e50	-0.12914395
26	0xbbba47ae	-0.0056848144
27	0xbd3d0168	-0.04614392
28	0xbe09abdb	-0.13444464
29	0xbdc676ff	-0.096906655
30	0xbdbfc306	-0.0936337
31	0xbda395d8	-0.07987565
32	0xbc7a8a1f	-0.01529172
33	0xbe58a118	-0.21155202
34	0xbd5f97a3	-0.05458797
35	0x3dab575d	0.083662726
36	0x3ce2b303	0.02767325
37	0xbb7a8ea9	-0.0038232005
38	0xbdc40dc4	-0.09572938
39	0x3d62da7e	0.05538415
40	0xbd2fa5bd	-0.04288267
41	0xbe0cbede	-0.13744685
42	0x3d6dd790	0.058066905
43	0xbd4cc5f0	-0.049993455
44	0xbdf14776	-0.11781208
45	0xbde5f328	-0.11228019
46	0xbd89394d	-0.067003824
47	0xbd0afe18	-0.03393373
48	0xbe3bfc21	-0.18357898
49	0xbe29db36	-0.16587529
50	0xbe3028b8	-0.17203033
51	0xb916c330	-0.00014377828
52	0xbbc11e49	-0.005893503
53	0xbd69961f	-0.057027932
54	0xbe206200	-0.15662384
55	0x3cfb14a1	0.030649485
56	0xbd1de8ab	-0.038551968
57	0xbd81a121	-0.06329561
58	0xbd96be7e	-0.07360552
59	0xbdb6490b	-0.089006506
60	0xbe3d7b1e	-0.18503997
61	0xbddc937b	-0.10770317
62	0x3d171df5	0.036893804
63	0xbd97fc96	-0.07421224
64	0xbe0a8db0	-0.13530612
65	0xbd1bdedb	-0.03805433
66	0xbd57549c	-0.052570924
67	0xbdc73ee9	-0.09728796
68	0xbc5cad35	-0.01346903
69	0xbe016ef7	-0.12639986
70	0xbe303d25	-0.17210825
71	0x3d2f5d98	0.042813867
72	0xbe1806d1	-0.1484635
73	0xbcad903a	-0.021186937
74	0x3cd95018	0.02652745
75	0x3d3e607d	0.046478737
76	0xbe5ab631	-0.21358563
77	0xbe1a821c	-0.15088695
78	0x3d951a05	0.072803535
79	0xbde1b17c	-0.110201806
80	0x3d96ef91	0.073699124
81	0xbdccedf9	-0.10006327
82	0xbe07619c	-0.13220829
83	0x3d2c601d	0.04208385
84	0xbe166f65	-0.14690931
85	0xbdf25129	-0.11831886
86	0xbde8d52b	-0.113687836
87	0xbe73abc8	-0.23795998
88	0xbd396522	-0.045262463
89	0xbe334626	-0.17507228
90	0xbd4fb24a	-0.05070714
91	0xbdd9a764	-0.1062763
92	0xbbcb971e	-0.006213083
93	0x3c988ce6	0.018621873
94	0x37579ff4	1.2852241e-05
95	0xbe023104	-0.1271401
96	0xbd9f6f6f	-0.07784926
97	0xbe02d212	-0.12775448
98	0xbe00e626	-0.12587795
99	0x3a8aa4e4	0.0010577706
100	0x3b82b1c4	0.0039884765
101	0xbdcdb775	-0.10044757
102	0xbdee7e7a	-0.11645217
103	0xbe2d41d0	-0.16919637
104	0xbddf2599	-0.10895843
105	0xbde562bd	-0.112004735
106	0xbe028bc4	-0.12748629
107	0xbe237ae0	-0.15964842
108	0x3d863647	0.06553321
109	0x3c737ff8	0.014862053
110	0xbe08cb91	-0.13358904
111	0xbe10b2d5	-0.14130719
112	0xbda10bde	-0.078635916
113	0xbe0a45d5	-0.13503201
114	0xbe2d4592	-0.1692107
115	0x3d31d3f3	0.04341502
116	0xbdb550d0	-0.088533044
117	0xbe065dfd	-0.13121791
118	0xbd69dfc2	-0.057098158
119	0xbdba83a1	-0.091071375
120	0xbde309fb	-0.11085888
121	0xbdad0b83	-0.08449461
122	0x3dfc5d57	0.12322491
123	0xbdb03ff1	-0.08605946
124	0xbe059689	-0.13045706
125	0x3ba75a70	0.0051072165
126	0xbe1c7e80	-0.15282631
127	0xbd1ebcb0	-0.038754165
128	0xbc083ec1	-0.008315743
129	0x3d413654	0.047170952
130	0xbdc939c0	-0.09825468
131	0x3dbe7abd	0.09300754
132	0xbd2742d4	-0.040835217
133	0x3d5d5905	0.054039974
134	0xbbc83c8d	-0.006110734
135	0x3becc404	0.0072255153
136	0xbc48f983	-0.0122665195
137	0xbcb3d8a6	-0.021953892
138	0xbd144003	-0.03619386
139	0xbd53223c	-0.05154632
140	0xbdd39622	-0.1033137
141	0xbd11ef83	-0.035628807
142	0xbde5fa77	-0.11229413
143	0x3d9dd52f	0.07706677
144	0xbd2d830c	-0.042361304
145	0x3df29a50	0.11845839
146	0xbd0805ad	-0.033208538
147	0xbdca3f27	-0.098753266
148	0xbd31758f	-0.043325003
149	0xbd2140d9	-0.039368484
150	0x3c12e275	0.008965124
151	0x3d65eb76	0.056132756
152	0x3d9829f4	0.07429877
153	0x3cfaf7a0	0.030635655
154	0x3d4ead62	0.05045832
155	0x3c80a675	0.015704373
156	0xbcde6e7d	-0.027152294
157	0x3dd54f6d	0.1041554
158	0xbc72d934	-0.014822293
159	0x3c5007c4	0.012697164
160	0x3d781758	0.060569137
161	0x3d4c1d1a	0.04983244
162	0xbc248319	-0.010041022
163	0xbdbc62c1	-0.09198523
164	0x3ba55e61	0.0050466512
165	0xbddb8410	-0.10718548
166	0xbcf3c574	-0.029757239
167	0x3d4b39de	0.049615733
168	0x3c92dc18	0.017927215
169	0xbd02d0a2	-0.03193725
170	0x3d5033d5	0.05083068
171	0xbbe73761	-0.007056162
172	0x3d279481	0.04091311
173	0x3d479108	0.048722297
174	0x3c384d0d	0.011248839
175	0x3c3ec9d7	0.011644802
176	0x3dc657dc	0.096847266
177	0xbc921c90	-0.017835885
178	0x3d60e704	0.054907814
179	0xbcf4febb	-0.029906621
180	0x3c09a270	0.0084005445
181	0xbd329f47	-0.04360893
182	0x3bec9eb5	0.007221068
183	0x3ded0266	0.11572723
184	0xbdb3e5d1	-0.087840684
185	0xbd0ffa83	-0.035151016
186	0x3bf94e7f	0.0076082344
187	0xbd2c4a60	-0.042063117
188	0x3d04fb06	0.032465957
189	0x3ca8c7c1	0.020603063
190	0xbbfa1c5e	-0.007632776
191	0x3d5fc862	0.05463446
192	0xbdf1daff	-0.11809348
193	0x3c1e0872	0.009645568
194	0x3d6bb8c4	0.057549253
195	0x3d9befe6	0.07614116
196	0xbc9ba1e9	-0.018998103
197	0xbe154482	-0.14576915
198	0xbdac390a	-0.08409317
199	0xbd266439	-0.040622924
200	0xba9bd8c1	-0.0011890159
201	0x3c1373ff	0.008999824
202	0xbe197320	-0.14985323
203	0x3da923c7	0.08258777
204	0xbe2bde6d	-0.16784067
205	0xbbd714f4	-0.006563777
206	0x3db4d459	0.088295646
207	0xbbc38edb	-0.0059679574
208	0x3d4d5ffd	0.05014037
209	0xbe5a5605	-0.21321876
210	0xbd9c40ee	-0.07629572
211	0xbda6aff1	-0.08139027
212	0xbe3e95ee	-0.18611881
213	0xbdc7e429	-0.09760315
214	0xbdce609a	-0.10077019
215	0xbe44422b	-0.19165866
216	0xbe0fc2d9	-0.14039172
217	0xbda41414	-0.08011642
218	0xbd7a454d	-0.061101247
219	0x3be4823f	0.0069735344
220	0xbe1d8fa8	-0.15386832
221	0xbe149bf2	-0.14512613
222	0xbd322688	-0.043493778
223	0xbdd78174	-0.10522738
224	0xbe0feb3d	-0.1405458
225	0xbe47564c	-0.19466513
226	0xbd9dac6a	-0.07698901
227	0xbd724259	-0.059145305
228	0xbde0145c	-0.10941383
229	0xbd9274bf	-0.07151174
230	0xbe0085a3	-0.12550978
231	0x3cb75f79	0.022384392
232	0xbd68e61a	-0.056860067
233	0x3c0493f1	0.008091913
234	0xbe22ef9a	-0.15911713
235	0xbdf11f61	-0.11773563
236	0xbcd79a5a	-0.026318718
237	0xbdc080a6	-0.09399538
238	0xbd86ba0f	-0.065784566
239	0x3bcd1fff	0.0062599177
240	0xbca601ea	-0.020264585
241	0xbd9ff1f5	-0.078098215
242	0xbd443374	-0.047900632
243	0xbe179bfe	-0.148056
244	0xbd5a6f56	-0.053328834
245	0xbe0ebeb6	-0.13939938
246	0xbd8a451f	-0.06751465
247	0xbc9fbe22	-0.019499842
248	0xbd13a7b1	-0.036048595
249	0xbe3c066a	-0.18361822
250	0x3e07db32	0.1326721
251	0x3c35dc90	0.0110999495
252	0xbd09c3b7	-0.033633914
253	0x3dc68806	0.09693913
254	0xbd9e4bc3	-0.07729294
255	0xbd807796	-0.06272809

lstm.bias_hh_l0 f4 [256]
0	0xbd8052a9	-0.06265766
1	0xbd823a62	-0.06358792
2	0xbc965607	-0.018351568
3	0xbd233abe	-0.039850943
4	0xbe33590b	-0.17514436
5	0xbdca4850	-0.09877074
6	0xbe09a0e1	-0.13440277
7	0xbe197f7b	-0.14990036
8	0xbdf0bd22	-0.11754824
9	0xbd34b56c	-0.04411833
10	0xbdae0aef	-0.08498179
11	0x3bdffa4f	0.006835259
12	0xbdbccebc	-0.09219119
13	0xbdc21d86	-0.094782874
14	0x3dfb85de	0.122813925
15	0xbe2a5b1d	-0.1663632
16	0xbe04582e	-0.12924263
17	0x3c87fa4f	0.016598849
18	0xba36eb60	-0.00069778226
19	0xbca238a2	-0.019802395
20	0xbdad9d98	-0.08477324
21	0x3c38d407	0.01128102
22	0xbd7654d3	-0.06013949
23	0xbe535227	-0.20636807
24	0xbe27738f	-0.16352676
25	0xbe1c0948	-0.15237916
26	0x3d4a9e3a	0.049467303
27	0xbe27335f	-0.1632819
28	0xbe0166b5	-0.12636836
29	0xbd0e0d60	-0.034680724
30	0xbde64180	-0.11242962
31	0xbb1dc46e	-0.002407338
32	0xbe600abc	-0.21879095
33	0xbda76d7b	-0.081751786
34	0xbd758cb5	-0.05994864
35	0xbdd0e66d	-0.102002
36	0xbdfb9585	-0.12284378
37	0xbdeeaa3b	-0.11653563
38	0xbdf55112	-0.119783536
39	0xbd742527	-0.059605744
40	0xbe7d1248	-0.24714005
41	0xbdb7e804	-0.089798
42	0xbd96bd7f	-0.07360362
43	0xbe0fbe0b	-0.1403734
44	0xbe2f6d7d	-0.1713161
45	0xbd5236b8	-0.051321715
46	0xbd413d90	-0.04717785
47	0xbdfaf7c6	-0.1225429
48	0xbe06bb7f	-0.13157462
49	0x3ccb2b9d	0.02480107
50	0x3cf80908	0.030277744
51	0x3cfe3ae7	0.031033946
52	0xbe11514b	-0.14191167
53	0xbda82353	-0.082098626
54	0xbe173107	-0.14764796
55	0xbdd197d5	-0.10234038
56	0xbdb81ed4	-0.08990255
57	0xbdd81e83	-0.10552695
58	0xbd9b6230	-0.07587087
59	0xbdf1a503	-0.117990516
60	0x3cfb2786	0.030658495
61	0xbc38a81c	-0.011270549
62	0xbd259185	-0.04042198
63	0xbd8c6038	-0.0685429
64	0xbd3b93a4	-0.045795098
65	0xbd1677bf	-0.036735293
66	0xbe1baa46	-0.15201673
67	0xbdbe0c1b	-0.09279653
68	0xbdb8d5ef	-0.090251796
69	0xbe0746e8	-0.13210642
70	0xbdf459b8	-0.11931175
71	0xbbdfc5b8	-0.00682899
72	0xbcfbbf9a	-0.030731011
73	0xbe0db4db	-0.13838522
74	0xbde1d985	-0.11027817
75	0xbe1a6277	-0.15076624
76	0xbd57c5b8	-0.052678794
77	0x3c3faa9a	0.011698389
78	0x3de5b59d	0.112162806
79	0xbd62790b	-0.055291217
80	0x3c1d96ea	0.0096185
81	0xbdadbc6b	-0.084832035
82	0xbd77552c	-0.06038396
83	0x3e03068c	0.12795466
84	0xbd95d9fd	-0.073169686
85	0xbe2591ee	-0.16168949
86	0xbc50983f	-0.012731611
87	0xbc8cf06e	-0.01720449
88	0xbd455a1a	-0.04818163
89	0x3c2554d5	0.010091026
90	0x3d83903e	0.064239964
91	0xbdc31ff8	-0.09527582
92	0xbdf27e37	-0.1184048
93	0xbdf53431	-0.11972845
94	0xbe12078e	-0.14260694
95	0xbb81b4f3	-0.0039583384
96	0xbda241ed	-0.079227306
97	0xbcd905a4	-0.026491947
98	0xbdc2caf9	-0.0951137
99	0xbe1e2a68	-0.15445864
100	0xbd4fc8e6	-0.0507287
101	0xbe363c1f	-0.17796372
102	0xbe27e03b	-0.16394131
103	0xbce13c1a	-0.027494479
104	0xbe210655	-0.15725072
105	0xbd367d9d	-0.044553388
106	0x3c3e9c12	0.01163389
107	0x3be75d9b	0.007060719
108	0x3d8719b9	0.06596703
109	0xbc0005e2	-0.007813903
110	0xbda99526	-0.08280401
111	0xbde24378	-0.11048025
112	0xbd9deda2	-0.077113405
113	0xbc9a3ba9	-0.018827276
114	0xbd45ed00	-0.048321724
115	0xbd707121	-0.058701638
116	0x3d5c19a6	0.053735398
117	0xbce3e6f7	-0.027820094
118	0xbd8f5a82	-0.06999685
119	0xbd972dcd	-0.07381783
120	0xbcea57f9	-0.028606402
121	0xbdfae843	-0.12251332
122	0x3cc7c7fa	0.024387348
123	0xbd008aa5	-0.03138222
124	0xbe105671	-0.14095475
125	0xbd33f940	-0.043938875
126	0xbde72bc1	-0.11287642
127	0xbc2a65b8	-0.010400228
128	0xbd389a87	-0.045069244
129	0xbd1dce82	-0.03852702
130	0x3dc0c364	0.09412268
131	0xbd40d393	-0.047076773
132	0xbc3d30a4	-0.011547241
133	0x3d37277b	0.044715386
134	0xbc3c5995	-0.011495967
135	0x3dbd5052	0.092438355
136	0x3d522b85	0.051311035
137	0x3cd76253	0.026292002
138	0x3cdfee68	0.02733536
139	0x3b4130bd	0.0029478513
140	0xbc690e6c	-0.01422463
141	0x3cfde4d1	0.030992897
142	0xbc45da44	-0.012075964
143	0x3c1706e5	0.009217952
144	0xbbc6cff6	-0.0060672713
145	0xbd8d4fa6	-0.06899957
146	0x3b6c1104	0.0036020884
147	0xbccdef30	-0.025138468
148	0x3d96dc42	0.073662296
149	0x3d3777f7	0.04479214
150	0xbcdb7e35	-0.026793579
151	0x3936ec7e	0.00017444973
152	0xbe07349f	-0.13203667
153	0xbce52f95	-0.02797679
154	0x3ca9a9d9	0.020710872
155	0xbb04c7ef	-0.0020260771
156	0xbc9d48e7	-0.019199802
157	0xbd630020	-0.05542004
158	0x3d87702a	0.066131905
159	0x3d4ba82d	0.04972093
160	0xbcc485c0	-0.023989558
161	0xbc3d548b	-0.011555801
162	0xbc989b1c	-0.01862865
163	0xbd0a86bb	-0.033819895
164	0x3cc2d5fb	0.023783674
165	0x3ddffcc4	0.10936883
166	0x3d09846e	0.03357356
167	0x3da80a69	0.082051106
168	0x3c4c2c0b	0.012461673
169	0x3cbdb0b6	0.023155551
170	0x3d878e44	0.06618932
171	0x3c55f53d	0.013058958
172	0x3b9a85c1	0.0047156517
173	0xbd0c7eec	-0.03430073
174	0x3d1722f9	0.036898587
175	0xbd191480	-0.037373066
176	0xbd5649dd	-0.052316535
177	0x3c79af1f	0.015239506
178	0xbd9c7af1	-0.07640637
179	0x3d1bc02f	0.038025077
180	0x3d32edff	0.043684002
181	0x3dd3a0f3	0.10333433
182	0xbd2ae503	-0.04172231
183	0xbd6a9d8f	-0.057279166
184	0x3e03f769	0.12887348
185	0x3d904fca	0.070464686
186	0xbd81d654	-0.06339708
187	0x3c994947	0.0187117
188	0xbd90a288	-0.070622504
189	0x3dd7b536	0.1053261
190	0xbc6ddde8	-0.014518239
191	0x3d0eff48	0.034911424
192	0xba0ab627	-0.0005291425
193	0xbc650bd2	-0.013979869
194	0xbe05a9d0	-0.1305306
195	0xbe0b0ded	-0.13579531
196	0xbd96bdef	-0.07360446
197	0xbd786a88	-0.06064847
198	0xbde9f5d3	-0.114238404
199	0xbb22b435	-0.002482665
200	0xbd979ad9	-0.07402582
201	0xbdbbdeef	-0.091733806
202	0xbdecf0b2	-0.115693465
203	0xbe16cb77	-0.14726053
204	0xbe3731af	-0.17890047
205	0xbe004941	-0.12527944
206	0x3b877fbe	0.004135101
207	0x3c0e1387	0.008671648
208	0x3d4a286b	0.04935495
209	0x3c2a5c38	0.010397963
210	0x3c419664	0.011815641
211	0x3ca998e9	0.020702796
212	0xbe046ab6	-0.12931332
213	0x3bdf77fb	0.0068197227
214	0x3da015a2	0.07816626
215	0xbdde109f	-0.10843014
216	0xbd71f4ea	-0.05907146
217	0xbbdbb143	-0.006704481
218	0x3d9a60fc	0.075380296
219	0x3d47763c	0.04869674
220	0xbe105a52	-0.14096954
221	0x3d882992	0.06648554
222	0xbe18a4a2	-0.14906552
223	0x3d100e29	0.035169754
224	0xbd0669c9	-0.03281573
225	0xbe65fa1a	-0.22458687
226	0x3d01eb78	0.0317187
227	0xbd5304d7	-0.051518288
228	0xbde9cd42	-0.11416103
229	0xbe1f1f31	-0.15539242
230	0xbdad11cb	-0.08450659
231	0xbdea7721	-0.11448503
232	0xbdb6bd5c	-0.08922836
233	0x3d9e7f17	0.07739084
234	0xbb398100	-0.002830565
235	0x3d4e7766	0.050406836
236	0x3d9c20ab	0.076234184
237	0xbd340906	-0.043953918
238	0xbe06f1f7	-0.1317824
239	0x3d0e4468	0.034733206
240	0xbd0fe61a	-0.03513155
241	0xbd25c599	-0.040471647
242	0xbe1debba	-0.15421954
243	0xbe18d07d	-0.14923282
244	0xbdc12377	-0.094305925
245	0xbdb0f8a8	-0.086411774
246	0xbdc53a9d	-0.0963032
247	0xbe1c7ea2	-0.15282682
248	0x3d24dfd1	0.04025251
249	0xbc0bbb43	-0.008528533
250	0x3cfd1b53	0.030896818
251	0xbd8ac873	-0.06776514
252	0xbded7651	-0.11594833
253	0xbd5be2b1	-0.053682987
254	0xbda1afbb	-0.07894846
255	0xbd8abd87	-0.06774431

lstm.weight_ih_l0_reverse f4 [256, 1]
0	0x3d2484cb	0.040165704
1	0x3bc6ce02	0.0060670385
2	0x3c03b8a6	0.008039629
3	0xbd20d60a	-0.039266624
4	0xbca1e245	-0.019761214
5	0xbca93681	-0.020655872
6	0xbc32e2b0	-0.010918304
7	0x3d9cfaab	0.076649986
8	0xbe42c503	-0.19020467
9	0xbaa78915	-0.0012781942
10	0x3d7cb68b	0.061697524
11	0x3c0cc2a2	0.008591326
12	0x3d92d9d3	0.07170453
13	0xbd91cf33	-0.07119598
14	0x3c958150	0.018250138
15	0x3d08796b	0.03331892
16	0x3d672d0a	0.056439437
17	0xbdefa187	-0.11700731
18	0xbdac8e75	-0.08425609
19	0xbe40d302	-0.18830493
20	0x3d83de94	0.06438938
21	0x3d242311	0.040072504
22	0x3ddedd01	0.10881997
23	0x3e1f0393	0.15528707
24	0xbdbb7b4c	-0.091543764
25	0x3e05361b	0.13008921
26	0x3e05e9b0	0.13077426
27	0xbd304a86	-0.04303982
28	0x3e362ee1	0.1779132
29	0xbd93ff9f	-0.0722649
30	0xbd105721	-0.035239343
31	0x3d7315df	0.05934703
32	0x3c8ede0f	0.01743987
33	0xbcc0c461	-0.02353114
34	0x3d82f739	0.0639481
35	0xbca83ef3	-0.020537829
36	0x3e0e2895	0.13882668
37	0xbd80521a	-0.0626566
38	0x3dc66547	0.09687286
39	0x3d953d18	0.07287043
40	0xbdba1652	-0.090862885
41	0x3e3cfc29	0.18455566
42	0xbe2ca8be	-0.16861245
43	0x3ddb60f1	0.107118495
44	0x3d82a93d	0.06379936
45	0xbdca0366	-0.098639295
46	0xbd277f47	-0.040892866
47	0x3e2e8fd2	0.1704705
48	0xbc0fffd2	-0.00878902
49	0x3dd7fe2e	0.10546528
50	0x3de629ff	0.11238479
51	0xbccc8586	-0.024966013
52	0x3d31fc9b	0.043453794
53	0x3d83773e	0.06419228
54	0x3d37d0e4	0.044876948
55	0x3e0a9d6a	0.13536611
56	0x3deabe27	0.1146205
57	0xbe05edee	-0.13079044
58	0xbdc07767	-0.09397774
59	0xbdc37310	-0.09543431
60	0xbcf9d2e0	-0.03049606
61	0x3e38e576	0.18056282
62	0xbb9f8f38	-0.004869368
63	0xbd61938b	-0.05507235
64	0x3e0f36e2	0.1398578
65	0x3c845849	0.016155379
66	0x3e19ef8d	0.15032788
67	0x3c08bdc3	0.008346024
68	0xbd19df46	-0.037566446
69	0x3dbc8592	0.09205164
70	0x3b79bfe1	0.0038108754
71	0xbde6089b	-0.1123211
72	0xbdc7164f	-0.09721052
73	0x3e51e44b	0.20497243
74	0x3dbc8a43	0.09206059
75	0xbc8067eb	-0.015674552
76	0xbdf93058	-0.12167424
77	0x3dc1442f	0.09436833
78	0x3dc1fe1e	0.09472297
79	0x3ddf92eb	0.10916694
80	0xbd127bb4	-0.035762504
81	0xbe0a0889	-0.13479818
82	0xbd467327	-0.04844966
83	0xbe095f36	-0.13415226
84	0xbce60eb4	-0.028083183
85	0x3defff7f	0.11718654
86	0x3e27baa9	0.16379799
87	0x3da78a2f	0.08180653
88	0xbdd3d894	-0.103440434
89	0xbc90c8d0	-0.01767388
90	0x3d682e7d	0.05668496
91	0x3c9f9ecc	0.0194849
92	0x3e4c96bf	0.1997938
93	0x3dd54f70	0.10415542
94	0x3cc4d014	0.024025
95	0xbc8fec2a	-0.017568666
96	0x3dd0268b	0.101636015
97	0xba57f04c	-0.0008237406
98	0x3d8ff0c8	0.07028347
99	0xbd51ba93	-0.05120332
100	0x3cf0b1d5	0.029381672
101	0x3d51c133	0.05120964
102	0xbd0c49ec	-0.034250185
103	0xbd248f98	-0.040176004
104	0x3db8098d	0.08986197
105	0x3e167fbd	0.14697166
106	0xbe606015	-0.21911652
107	0xbd7912df	-0.060809013
108	0x3d3afcd8	0.045651287
109	0x3dd36997	0.10322874
110	0x3d3a7224	0.04551901
111	0x3ddafb70	0.10692489
112	0xbd923817	-0.071396045
113	0xbbf0da77	-0.007350262
114	0x3d850147	0.06494384
115	0xbe6b4542	-0.22975639
116	0x3a929184	0.0011182283
117	0x3c6aec46	0.014338559
118	0xbdd7ebc6	-0.10543017
119	0xbdd788fb	-0.10524174
120	0x3dd04634	0.1016964
121	0xbde4dae5	-0.11174563
122	0x3c8ef819	0.017452287
123	0x3d420a43	0.047373068
124	0x3e1b7d81	0.15184595
125	0xbca7f605	-0.020503053
126	0xbcce17da	-0.025157858
127	0xbd41038b	-0.04712252
128	0x3dc6fc74	0.0971612
129	0xbe2f593c	-0.17123884
130	0x3dec4f50	0.11538565
131	0x3ecfbc0f	0.40573165
132	0xbec1672c	-0.37774026
133	0x3dee260b	0.1162835
134	0xbe345879	-0.17611875
135	0x3e642513	0.22279768
136	0xbeb29437	-0.34878704
137	0xbe9693e0	-0.29409695
138	0x3d432b1e	0.04764854
139	0x3e5d747b	0.21626465
140	0xbddf7608	-0.109111845
141	0xbd6a0363	-0.057132136
142	0xbe0f552e	-0.13997337
143	0xbddc1a03	-0.10747149
144	0x3cda0a21	0.026616158
145	0xbe719f10	-0.23595834
146	0x3dc44ad3	0.09584584
147	0xbe345338	-0.1760987
148	0xbe61e541	-0.2206011
149	0x3d199582	0.037496097
150	0xbd8f99f0	-0.07011783
151	0x3e15bb9b	0.14622347
152	0xbe971ba1	-0.29513267
153	0x3e27e66c	0.16396493
154	0x3e299f91	0.16564776
155	0x3e89192b	0.26777014
156	0xbea77a58	-0.32710528
157	0x3c12b6b7	0.008954695
158	0x3d8d7d49	0.06908662
159	0xbe732725	-0.23745401
160	0x3e10e9b3	0.14151649
161	0xbd1fcfea	-0.03901664
162	0x3e2aaed4	0.16668254
163	0xbbe2ab36	-0.0069173826
164	0xbe576fab	-0.21038692
165	0xbd53b2a5	-0.05168404
166	0xbca3dd52	-0.020002995
167	0xbda47f5c	-0.080321044
168	0xbe4c3594	-0.19942313
169	0xbd700d95	-0.058606703
170	0x3e236770	0.15957427
171	0xbdb5b56d	-0.08872495
172	0xbcf756bb	-0.030192723
173	0xbde9622e	-0.113956794
174	0xbc22858a	-0.0099195335
175	0x3e08a588	0.13344395
176	0xba6c0ff6	-0.0009005064
177	0xbdbdf178	-0.09274572
178	0xbdd639a0	-0.1046021
179	0x3e9c930e	0.30580944
180	0xbdac4e70	-0.08413398
181	0xbe3d994b	-0.18515508
182	0xbcde7c91	-0.027159007
183	0x3d4ac193	0.049501013
184	0x3e2c4b1c	0.16825527
185	0xbe3d1d95	-0.18468316
186	0x3e9e4668	0.3091309
187	0xbd202722	-0.03909982
188	0x3e29f3e2	0.1659694
189	0xbe8136c4	-0.25237095
190	0x3e9b8e4c	0.30382
191	0xbd5e6a9a	-0.054300882
192	0xbd652979	-0.055947755
193	0x3e045e71	0.12926652
194	0x3cb67b68	0.022275642
195	0xbdfaec96	-0.122521564
196	0xbde10e08	-0.109890044
197	0x3e032060	0.12805319
198	0xbe30b659	-0.1725706
199	0x3d2ca891	0.042152945
200	0xbe320553	-0.17384844
201	0xbc2bb591	-0.0104803005
202	0xbd41a578	-0.047276944
203	0x3d283fd0	0.04107648
204	0x3d960037	0.0732426
205	0x3e000a49	0.12503923
206	0xbd9d078f	-0.07667457
207	0x3e07753a	0.13228312
208	0x3d8bc076	0.068238184
209	0x3da7a75d	0.08186219
210	0x3de3b3f2	0.11118306
211	0xbe056e83	-0.13030438
212	0xbb81b821	-0.0039587175
213	0x3e284d32	0.16435698
214	0x3e2556b5	0.16146357
215	0x3d953d77	0.07287114
216	0xbce56662	-0.028002921
217	0x3d32e96d	0.043679643
218	0x3dea4ae8	0.114400685
219	0xbd5aedfc	-0.053449616
220	0x3e8d1459	0.27554587
221	0x3dc3f52f	0.095682494
222	0xbe242c8d	-0.1603262
223	0x3e2190b4	0.15777856
224	0xbe029a5a	-0.12754193
225	0x3c5b3f57	0.013381801
226	0x3d8744b4	0.06604901
227	0x39706e3b	0.00022929248
228	0x3d53e296	0.05172976
229	0x3d54f7c1	0.05199409
230	0xbd3d501e	-0.046218984
231	0x3d8e1c7a	0.06939025
232	0x3dcfd6d1	0.10148395
233	0x3dd62ae1	0.10457397
234	0x3c97d2ba	0.0185331
235	0x3bb34fae	0.005472145
236	0x3dc28149	0.094973154
237	0xbd2d35a2	-0.042287476
238	0xbd384fd4	-0.044998005
239	0xbd2e74ca	-0.042591847
240	0xbdae2a42	-0.08504154
241	0xba574211	-0.0008211444
242	0xbdc71417	-0.09720629
243	0xbd0ca191	-0.03433377
244	0xbc8ffaea	-0.0175757
245	0x3ca9e295	0.020737926
246	0xbdfa030d	-0.12207613
247	0x3e031291	0.12800051
248	0xbc8f3301	-0.017480375
249	0xbdde3b2b	-0.10851129
250	0xb9e07101	-0.00042808804
251	0xbca8bbf1	-0.02059743
252	0x3d917282	0.07101919
253	0x3bfb1d07	0.0076633724
254	0xbdecbf61	-0.1155994
255	0x3d140e44	0.036146417

lstm.weight_hh_l0_reverse f4 [256, 64]
0	0x3de5253d	0.11188743
1	0x3bc71b7b	0.006076274
2	0xbdc5328f	-0.09628784
3	0x3e4518b8	0.1924771
4	0xbe24e789	-0.16103949
5	0xbdd954b7	-0.10611861
6	0xbda5b375	-0.08090869
7	0xbd88c6a8	-0.06678516
8	0x3d5096bf	0.050925013
9	0x3db8c20c	0.090213865
10	0xbdd642bb	-0.104619466
11	0x3d6d9cfe	0.058011048
12	0x3cfca5e6	0.030840825
13	0x3d96af26	0.07357626
14	0x3d1f8ab4	0.038950637
15	0x3da4029c	0.0800831
16	0x3de26395	0.1105415
17	0xbd8d0c1c	-0.06887075
18	0x3db3358f	0.0875045
19	0x3d5b5408	0.053546935
20	0xbaa68d96	-0.0012706991
21	0x3df8f8f4	0.12156859
22	0xbd6dc36b	-0.058047693
23	0xbc9bd114	-0.019020595
24	0xbd65d647	-0.056112554
25	0x3dcc6256	0.099796936
26	0xbd43ee8f	-0.04783493
27	0x3d72fe82	0.05932475
28	0x3dc05c9c	0.09392664
29	0x3d1ce690	0.03830582
30	0xbd81dc0c	-0.06340799
31	0xbda688ae	-0.08131538
32	0x3e08aa82	0.13346294
33	0xbd85a78a	-0.06526096
34	0xbdd6ba86	-0.10484795
35	0x3d47fc43	0.04882456
36	0xbda3dd12	-0.0800115
37	0xbd9951f9	-0.07486338
38	0x3dd8dd23	0.105890535
39	0xbe115546	-0.14192685
40	0xbddec97e	-0.10878275
41	0x3dd36d19	0.10323543
42	0xbd9405bd	-0.07227657
43	0xbcd01c89	-0.025404232
44	0x3d34244d	0.04397993
45	0xbcef4845	-0.029209265
46	0xbda854d3	-0.08219304
47	0xbc07ab97	-0.008280656
48	0x3e065dd0	0.13121724
49	0x3cd83cc1	0.026396157
50	0x3cf3c616	0.02975754
51	0x3dbc9824	0.09208706
52	0x3d33e842	0.04392267
53	0x3d26658b	0.040624183
54	0xbdeafffa	-0.11474605
55	0xbe253a96	-0.1613563
56	0x3d362663	0.044470202
57	0x3d55bb8a	0.052180804
58	0x3da236cc	0.07920608
59	0x3cbd2fca	0.023094077
60	0xbd5382f1	-0.051638547
61	0x3d281a65	0.041040797
62	0x3db18731	0.08668364
63	0x3e1ac46d	0.15113993
64	0xbc36c61c	-0.011155631
65	0xbddb44b2	-0.10706462
66	0x3da3b467	0.079933934
67	0x3d6ae08d	0.057343055
68	0x3d060c55	0.032726604
69	0xbdc995d0	-0.098430276
70	0xbc8f7e52	-0.017516289
71	0x3d425432	0.047443576
72	0xbddd5fc3	-0.10809281
73	0xbd4fb709	-0.050711665
74	0xbd2cb746	-0.04216697
75	0xbde64a8e	-0.11244689
76	0x3a429b53	0.0007423658
77	0x3d3ce6a2	0.046118386
78	0x3c37f2a8	0.011227287
79	0xbccc0762	-0.024905864
80	0x3d0ab758	0.033866256
81	0x3d566500	0.052342415
82	0xbce90183	-0.028443104
83	0xbdba9acd	-0.09111557
84	0x3db20fe5	0.08694438
85	0x3cc95582	0.024576906
86	0xbb2ab60d	-0.0026048452
87	0xbd865816	-0.0655977
88	0x3ccb9623	0.024851864
89	0x3d926292	0.07147707
90	0xbcba1b2f	-0.02271804
91	0xbcf44520	-0.029818118
92	0xbcf20772	-0.029544566
93	0xbd1b7e6f	-0.037962373
94	0xbd8cbc37	-0.06871837
95	0x3d84d809	0.06486518
96	0x3e318b8b	0.17338388
97	0xbda5a806	-0.080886886
98	0x3decb27d	0.115574814
99	0x3da37cbb	0.07982775
100	0xbde3b9e0	-0.11119437
101	0x3dce148e	0.10062514
102	0x3e0b843e	0.13624665
103	0xbdb3153f	-0.08744287
104	0x3d8d78f8	0.069078386
105	0xbd80d454	-0.062904984
106	0x3d80d9cf	0.06291544
107	0xbd3bffcb	-0.04589824
108	0xbaa015d0	-0.0012213532
109	0xbe0246cf	-0.12722324
110	0xbda07571	-0.078349
111	0xbda4e3e5	-0.0805128
112	0x3df9f55c	0.12205002
113	0xbd872286	-0.06598382
114	0xbdc08e75	-0.094021715
115	0x3d4f07c5	0.05054452
116	0xbcfe150f	-0.0310159
117	0xbdc67532	-0.09690322
118	0x3d80aedf	0.06283354
119	0xbd210700	-0.039313316
120	0x3e031277	0.12800013
121	0xbe04ffb7	-0.12988172
122	0xbcb40b4d	-0.021978045
123	0x3d9d7624	0.07688549
124	0xbc435e7e	-0.011924384
125	0xbe148607	-0.14504252
126	0x3e23dc59	0.16002025
127	0x3d585296	0.052813135
128	0xbd9eed8e	-0.07760154
129	0x3d0d89a4	0.034555092
130	0x3e0f5e5b	0.14000838
131	0x3cad71ad	0.021172369
132	0xbdf2afa6	-0.118499085
133	0x3d0bbd74	0.034116223
134	0xbe157fdd	-0.14599557
135	0x3dbb1389	0.091345854
136	0xbe6071bf	-0.2191839
137	0x3c896979	0.016773926
138	0x3c73b08a	0.014873633
139	0xbd8427ab	-0.064528786
140	0xbdf5e9d9	-0.120074935
141	0xbdca69fc	-0.09883496
142	0x3cc3bf80	0.023895025
143	0xbdabc374	-0.08386889
144	0x3d2f507b	0.04280136
145	0xbe0c2f08	-0.13689816
146	0x3ddff60c	0.109356016
147	0xbd0f22bf	-0.034945246
148	0x3d78a0a9	0.060700092
149	0x3de2591b	0.11052152
150	0xbddb220f	-0.106998555
151	0xbdbe9687	-0.093060546
152	0xbe0d7fd7	-0.13818298
153	0x3d8881b7	0.06665366
154	0x3de19bf2	0.11016072
155	0xbd6b5050	-0.05744964
156	0xbd15d22f	-0.0365774
157	0xbe00fab4	-0.12595636
158	0xbd8c349a	-0.068459705
159	0x3de633cf	0.112403505
160	0x3e0c7147	0.13715087
161	0xbc2da347	-0.01059801
162	0x3d7f6c1e	0.062358968
163	0x3e138d2c	0.14409322
164	0xbc87746e	-0.01653501
165	0xbd4cf2db	-0.050036293
166	0x3da3210b	0.07965287
167	0x3d3cce56	0.046095215
168	0xbe05e8ca	-0.13077083
169	0xbde7ca55	-0.11317889
170	0x3b2939ef	0.0025821885
171	0x3ba5abc3	0.005055876
172	0x3e01830c	0.12647647
173	0xbb8e5ce5	-0.00434457
174	0x3dc06ea6	0.093961045
175	0xbd417973	-0.047234964
176	0xbda3dd9f	-0.08001255
177	0x3d8956ab	0.06705984
178	0xbda98b31	-0.08278502
179	0x3d30c218	0.043153852
180	0x3e01f429	0.12690796
181	0xbdbf2f06	-0.09335141
182	0xbc9cfbb8	-0.019162998
183	0x3d769101	0.06019688
184	0xbd8ab5dc	-0.06772968
185	0xbdd19477	-0.102333955
186	0x3e012a90	0.12613893
187	0xbdccc73c	-0.099989384
188	0x3bd0d3e6	0.0063729165
189	0xbdcd5acb	-0.10027083
190	0x3e39920e	0.18122122
191	0x3cc4588e	0.023968007
192	0x3d811420	0.06302667
193	0xbe4ffa10	-0.20310235
194	0x3df51f7c	0.11968896
195	0x3e647e27	0.22313748
196	0xbd888f03	-0.06667902
197	0x3e04c50a	0.1296579
198	0xbe28b1a3	-0.16474013
199	0xbc3bf55a	-0.011472071
200	0xbce3dc27	-0.027814938
201	0xbd967b07	-0.07347684
202	0x3d93af1f	0.07211136
203	0x3d892d62	0.06698109
204	0xbcb0c43d	-0.021577949
205	0x3d669d97	0.056302633
206	0xbdb545f7	-0.08851235
207	0xbe09cb77	-0.13456522
208	0xbd54dd31	-0.051968757
209	0xbe1fc07d	-0.15600772
210	0x3dca05c5	0.09864382
211	0xbd6244bc	-0.05524133
212	0xbdeee452	-0.116646424
213	0x3dc44541	0.09583522
214	0xbd9fe46d	-0.07807241
215	0x3cc86b1b	0.024465134
216	0xbcb4a59d	-0.022051627
217	0x3dd45efe	0.10369681
218	0x3d814f2c	0.06313929
219	0x3e0bb29a	0.1364235
220	0xbe6aa019	-0.22912635
221	0x3e02839e	0.1274552
222	0x3dae0463	0.084969305
223	0xbd1e61f9	-0.038667653
224	0x3d95eebe	0.07320927
225	0x3d889c1f	0.06670403
226	0xbd42a82f	-0.047523674
227	0x3dd68e26	0.104763314
228	0xbe199e39	-0.15001763
229	0x3c8dc349	0.017305033
230	0xbe27bcde	-0.16380641
231	0x3df81ff8	0.121154726
232	0xbc5585c8	-0.013032384
233	0xbd877701	-0.06614495
234	0xbd9828c4	-0.074296504
235	0xbd7690ee	-0.06019681
236	0x3dec25c0	0.11530638
237	0xbd8f66dd	-0.070020415
238	0xbd05c319	-0.032656763
239	0x3e10f654	0.14156467
240	0x3da29bb5	0.07939855
241	0xbe042466	-0.1290451
242	0xbdaa0161	-0.08301044
243	0x3e2d8dc7	0.16948615
244	0xbe5b58b9	-0.21420564
245	0xbe83a59e	-0.25712293
246	0xbd71c31a	-0.059023954
247	0x3e1b21b7	0.1514958
248	0xbb14ae0e	-0.0022686752
249	0xbce1b1fd	-0.027550692
250	0x3b9a1f9c	0.004703475
251	0xbc82e6e9	-0.015979247
252	0x3dc8a9b7	0.097979955
253	0xbd6fea28	-0.05857292
254	0x3e09a37e	0.13441274
255	0xbde16c2e	-0.11006962

lstm.bias_ih_l0_reverse f4 [256]
0	0xbddef0af	-0.108857505
1	0xbe179ba3	-0.14805464
2	0xbdbd34cd	-0.092385866
3	0x3cd6803b	0.026184192
4	0x3d4bce04	0.04975702
5	0xbdb42b03	-0.08797266
6	0xbdceabfa	-0.10091396
7	0x3d119799	0.035544965
8	0x3d332402	0.04373551
9	0xbde4e9c6	-0.11177401
10	0xbd22cfd9	-0.039749
11	0x3cb6e5c3	0.022326356
12	0xbdf55158	-0.11978406
13	0xbda9914c	-0.08279666
14	0xbe19c404	-0.1501618
15	0xbe22d92c	-0.15903157
16	0xbcc4c1ca	-0.024018187
17	0xbe0fdd1b	-0.14049189
18	0xbdd0b917	-0.10191553
19	0xbcd22979	-0.025654541
20	0x3d4971be	0.04918074
21	0xbd82c047	-0.0638433
22	0x3da68e87	0.08132654
23	0x3cc5f88c	0.024166368
24	0x3d9f9db3	0.077937506
25	0xbdfbfb78	-0.12303823
26	0xbdab4a2d	-0.08363757
27	0xbe156640	-0.14589787
28	0x3c325452	0.010884361
29	0xbb4db5f2	-0.0031388965
30	0xbd9f30ee	-0.077730045
31	0xbe03c8a3	-0.12869506
32	0xbe5db900	-0.21652603
33	0xbe4ff317	-0.20307575
34	0xba1fea14	-0.0006100249
35	0xbe085eac	-0.13317364
36	0x3d01fd0a	0.031735457
37	0xbd2328e8	-0.039833933
38	0xbd0159b3	-0.031579684
39	0xbe1cbf3e	-0.15307328
40	0x3d89d0e0	0.06729293
41	0xbdbeea1a	-0.09321995
42	0x3cb353bf	0.02189052
43	0xbda098f7	-0.07841676
44	0x3c3288c2	0.010896863
45	0xbd5dafaa	-0.054122604
46	0xbd101cd2	-0.035183735
47	0x3c0ea435	0.008706142
48	0xbd850bfd	-0.06496427
49	0xbd477339	-0.04869387
50	0xbd35464e	-0.0442565
51	0xbe115ee1	-0.1419635
52	0xbbd02f7d	-0.0063533173
53	0xbd3c8b41	-0.04603124
54	0x3cf848b8	0.030308113
55	0x3d65ce42	0.056104906
56	0xbb934e12	-0.0044953907
57	0xbe02d7ae	-0.12777588
58	0xbdbb8f19	-0.09158153
59	0xbdd642b2	-0.1046194
60	0x3d526c51	0.05137283
61	0xbdd15452	-0.10221161
62	0xba94d035	-0.0011353554
63	0x3d99ec57	0.075157814
64	0xbe011241	-0.1260462
65	0xbd35cecf	-0.04438668
66	0x3d0eeaca	0.03489188
67	0xbc99923f	-0.018746493
68	0xbdc916da	-0.09818812
69	0xbe6887b3	-0.22708015
70	0xbe08dbad	-0.1336505
71	0xbdd8f652	-0.10593857
72	0xbdf598e5	-0.11992053
73	0x3d2c53c8	0.042072088
74	0xbe0a0a4f	-0.13480495
75	0xbe268e7f	-0.16265295
76	0x3cc39d76	0.023878794
77	0xbc503881	-0.012708784
78	0xbd6f5b5b	-0.058436733
79	0xbe233baa	-0.15940729
80	0xbe5010db	-0.2031893
81	0xbdd3b24d	-0.103367426
82	0xbddb19b0	-0.10698259
83	0xbe1d22fb	-0.15345375
84	0xbe3084ec	-0.17238206
85	0xbca15820	-0.019695342
86	0x3d188e34	0.03724499
87	0xbd0d683b	-0.03452323
88	0x3daa9347	0.08328872
89	0xbc912ede	-0.017722543
90	0x3d6421d3	0.05569632
91	0xbde9a528	-0.11408454
92	0x3dfe70f6	0.12423889
93	0xbde0b99b	-0.109729014
94	0xbd82f52a	-0.063944176
95	0x3c7a162f	0.015264078
96	0x3ba58ada	0.005051953
97	0x3c538f08	0.012912519
98	0xbd02f309	-0.031970058
99	0x3d47451d	0.048649896
100	0xbd97778d	-0.073958494
101	0xbda1939e	-0.07889484
102	0xbd82dc2c	-0.06389651
103	0xbe1230df	-0.14276455
104	0xbd0d3eda	-0.034483768
105	0xbb11c857	-0.0022244656
106	0xbe00add6	-0.12566313
107	0xbdc4b211	-0.09604276
108	0xbd90a1d9	-0.0706212
109	0xbe2f4988	-0.17117894
110	0xbe60f5c0	-0.21968746
111	0x3cfa8d57	0.030584974
112	0xbe30fe16	-0.17284426
113	0xbe4ce605	-0.2000962
114	0xbd672807	-0.056434657
115	0x3aab5c36	0.0013073746
116	0x3d0080e2	0.031372912
117	0x3caa988c	0.020824693
118	0x3c106280	0.008812547
119	0xbdc75429	-0.09732849
120	0x3c740bd2	0.014895396
121	0x3cfd413d	0.030914897
122	0x3d9bf073	0.076142214
123	0xbdf1abe4	-0.11800364
124	0xbcab1c37	-0.020887477
125	0xbe119e0c	-0.14220446
126	0xbdee8db5	-0.11648122
127	0xbd2d4691	-0.042303625
128	0xbcbc32c9	-0.022973435
129	0x3d9bc121	0.07605196
130	0x3d71447e	0.05890321
131	0xbe2bd838	-0.167817
132	0x3d98c7fa	0.074600175
133	0xbc823dea	-0.015898664
134	0x3d8cf518	0.068826854
135	0xbd25c4b7	-0.040470805
136	0xbbe780ab	-0.007064899
137	0x3dbb9bb6	0.09160559
138	0x3ce5e798	0.028064534
139	0xbc1760ed	-0.0092394175
140	0x3e0b1ad7	0.13584457
141	0x3d33d4d0	0.043904126
142	0x3c92110b	0.017830392
143	0xbae2145d	-0.00172485
144	0xbdcbf211	-0.0995828
145	0x3cb0e6a1	0.021594347
146	0xbcfa645f	-0.030565439
147	0x3da7dc51	0.08196319
148	0xbd2a8fe8	-0.041641146
149	0xbd84b9bf	-0.06480741
150	0xbdb43123	-0.087984346
151	0x3da50203	0.08057024
152	0x3d926bdb	0.07149478
153	0x3d51ce46	0.05122211
154	0xbc2d2f83	-0.01057041
155	0x3d4c4f06	0.04988005
156	0xbcd7df87	-0.026351703
157	0xbca4ab59	-0.020101236
158	0xbcdeab04	-0.027181156
159	0xbd2e068d	-0.042486716
160	0xbce60ba5	-0.028081724
161	0xbd85f27d	-0.065403916
162	0xbcb81f81	-0.02247596
163	0x3bbdb58e	0.0057894653
164	0xbcb25da7	-0.021773173
165	0x3c713d44	0.0147240795
166	0x3d058f00	0.03260708
167	0x3da13a3b	0.07872435
168	0x3e0006a9	0.1250254
169	0x3dda0ce5	0.10646991
170	0xbe0ccb7c	-0.13749498
171	0x3dbc4537	0.09192889
172	0x3dc36f0a	0.095426634
173	0x3d3d13fc	0.046161637
174	0x3d8197c9	0.06327779
175	0xbcb5bb25	-0.022183964
176	0x3d7d063d	0.061773527
177	0x3e08ce0d	0.13359852
178	0xbca9168d	-0.020640636
179	0xbd93787a	-0.072007135
180	0xbc4028c6	-0.011728471
181	0x3dde58d4	0.10856786
182	0x3d5b91ef	0.05360597
183	0x3cabce3f	0.02097237
184	0x3d89540a	0.06705482
185	0x3d949a58	0.07256001
186	0xbd4b66c7	-0.049658563
187	0xbc2821b3	-0.010261941
188	0xbde28739	-0.11060948
189	0x3d59e519	0.053197
190	0xbd45a499	-0.048252676
191	0xbd52e017	-0.05148324
192	0xbe227b2a	-0.15867296
193	0xbdaf8ba2	-0.08571555
194	0x3d6bbabc	0.05755113
195	0x3d206561	0.039159182
196	0xbd3e2d9c	-0.046430215
197	0xbe5ab7f7	-0.2135924
198	0xbd6e087e	-0.058113568
199	0x3c735b37	0.01485329
200	0x3dc259fe	0.09489821
201	0xbd87d5e2	-0.06632592
202	0x3bdf682e	0.006817839
203	0x3d4fbb0b	0.050715487
204	0xbe4cbf0e	-0.19994757
205	0xbe2d1932	-0.16904142
206	0xbc3b0a98	-0.0114161
207	0xbe843d57	-0.2582805
208	0xbe480ca3	-0.1953607
209	0x3da92bf1	0.08260334
210	0xbe731699	-0.23739089
211	0x3d38e9d1	0.04514486
212	0xbe056477	-0.13026606
213	0xbd378abd	-0.044810046
214	0xbcc664d0	-0.024217993
215	0xbdedd0d2	-0.11612095
216	0x3d34f3b1	0.044177715
217	0xbce8b5b6	-0.028406959
218	0xbe19d03e	-0.15020844
219	0xbdd5bf01	-0.10436822
220	0x3dafeecf	0.08590471
221	0xbdfa8bef	-0.122337215
222	0x3c5d3c20	0.013503104
223	0x3d5544d7	0.052067604
224	0xbd0344ac	-0.032047912
225	0xbe35dcae	-0.17759964
226	0xbe335048	-0.17511094
227	0xbdd72bf8	-0.10506433
228	0xbd192520	-0.03738892
229	0xbc757995	-0.014982601
230	0x3d068444	0.032840982
231	0xbd50c961	-0.0509733
232	0xbe154077	-0.14575373
233	0xbe367e51	-0.17821623
234	0x3c758a62	0.014986606
235	0x3b899e3a	0.0041997703
236	0xbdf2e357	-0.11859768
237	0xbdfcb968	-0.12340051
238	0xbe0550f6	-0.13019165
239	0xb997246d	-0.00028828104
240	0x3cbd9608	0.02314283
241	0x3cbc1f24	0.022964068
242	0xbe053e5e	-0.13012072
243	0xbe1a48fa	-0.15066901
244	0x3d0a49a4	0.033761635
245	0xbc9c2c94	-0.019064225
246	0x3c207ea4	0.0097958185
247	0x3cb53032	0.022117708
248	0xbc94ac09	-0.018148439
249	0xbe1775eb	-0.14791076
250	0xbd019518	-0.031636328
251	0xbd810c22	-0.06301142
252	0xbc7d8593	-0.015473741
253	0x3ca39d66	0.019972514
254	0xbdba95c1	-0.091105945
255	0x3d90c970	0.07069671
